model.pt (torch, 15311 bytes, 13 tensors)

fcs.0.weight f4 [30, 60]
0.0009607747 -0.07826631 -0.0095827095 -0.0985446 -0.0048064915 0.082612135 0.09682524 0.059037246
-0.07339507 -0.019028226 -0.049833257 -0.0067353784 0.05612586 -0.06832729 0.026772391 -0.11836961
0.023555448 -0.064997524 0.046624113 -0.018777069 -0.017163623 0.08309889 -0.03467423 0.009947566
-0.057340898 0.04833177 -0.15521823 0.11667706 0.11496983 0.066213615 0.057145588 -0.009134214
0.018006925 -0.06154889 -0.082440436 -0.0788353 -0.018992018 0.12460614 -0.049147286 0.103309155
-0.06775324 0.026212398 0.078623496 -0.10656283 -0.15527962 -0.02351576 -0.12241554 0.014477534
0.06277041 0.11239305 0.025988944 -0.042423617 -0.03989407 0.13968018 -0.006694563 0.16033287
-0.06355984 0.07131065 0.10139993 -0.019843562 0.17985477 -0.14795741 -0.10246838 -0.06329447
-0.06284716 -0.14630885 -0.023063624 0.022405734 0.0754729 -0.019781707 0.077757545 0.039865248
-0.10536805 0.05972918 -0.09602378 -0.10983214 0.08439035 -0.040312394 -0.026182702 0.021472234
-0.008098673 0.083518386 0.07406547 -0.046284314 0.07330381 0.045229577 0.054283217 -0.09289611
0.099686414 0.07856529 -0.08987992 -0.0070349094 -0.08252471 0.045453705 -0.09360103 0.030772021
-0.013060121 0.11516817 -0.02779619 0.07081578 -0.06629683 0.0633763 0.13035029 -0.05382754
0.103344 0.01563496 -0.025028575 -0.044209793 -0.025083894 0.025301132 0.14487267 0.022689223
-0.018112097 0.1167152 0.09924394 0.042550188 0.07057408 0.000114865456 0.044943836 -0.061657157
-0.07962809 -0.16197708 -0.06693071 -0.17990628 -0.14739679 -0.09307656 0.14095587 0.042540804
-0.1996703 -0.1278195 0.02315786 -0.14273429 -0.07277231 0.08244697 0.03906629 -0.05786908
-0.049272075 -0.075984456 0.0984194 -0.012269565 -0.050003245 -0.0047890404 0.07019685 -0.058318727
0.066620275 0.09937377 0.041197304 -0.08088462 -0.038349062 0.124879636 0.028963787 -0.043508645
0.110808045 0.073159054 -0.10820775 0.0049715047 0.03708286 0.055852965 0.10701178 -0.046838377
-0.1039072 0.02728177 0.03919474 -0.023792747 0.04429274 -0.09467022 -0.030187557 -0.050534092
-0.013020874 0.11854117 0.051945075 0.020995025 -0.033105373 0.092987984 -0.060900725 -0.043584578
0.11725969 0.040684544 -0.072281875 0.118073575 0.072549276 0.09107815 -0.027675709 -0.072301194
-0.026133496 0.012477518 0.09451133 0.1578141 -0.033627853 0.012667912 -0.05834627 -0.04766937
-0.05133716 -0.07027757 -0.07961478 0.08437292 -0.07547139 0.07419185 0.06321702 0.076974295
0.026696589 0.11574943 0.010646648 -0.072758004 0.08558988 -0.0056633083 0.09736648 -0.038483143
0.14229651 0.15233332 0.04164474 -0.11915537 -0.09503398 0.01269062 0.030436302 0.03461254
-0.0002757056 0.15543857 0.122579195 0.053941153 0.14627099 -0.044393327 0.0776268 -0.034286316
0.09870429 0.14905871 0.01715999 0.17459577 0.029337542 0.11708151 0.18473656 0.048296884
0.0148046715 0.037555397 -0.01332474 0.01705653 0.0012617421 -0.0069882628 0.11916399 0.07712949
-0.010426685 0.04111238 0.11073613 -0.07293765 -0.048895583 0.07278748 -0.05843626 0.041372746
0.03694555 -0.034505777 0.05469793 -0.041261733 0.04869397 -0.06267394 -0.10031168 -0.12388716
00000000: 80dc 7b3a 164a a0bd cc00 1dbc c0d1 c9bd
00000010: c67f 9dbb 8d30 a93d 504c c63d 0ad1 713d
00000020: 2850 96bd 15e1 9bbc f51d 4cbd 73b4 dcbb
00000030: 3be4 653d 2eef 8bbd c651 db3c c46b f2bd
00000040: 5bf7 c03c 6c1d 85bd edf8 3e3d 5ed2 99bc
00000050: ba9a 8cbc c02f aa3d 9106 0ebd 1efb 223c
00000060: 4ade 6abd 89f7 453d 87f1 1ebe 62f4 ee3d
00000070: 4d75 eb3d 019b 873d 7e11 6a3d aca7 15bc
00000080: 4283 933c b01a 7cbd 88d6 a8bd 6774 a1bd
00000090: 2695 9bbc 8131 ff3d aa4e 49bd c093 d33d
000000a0: 36c2 8abd 62bb d63c 5b05 a13d 9d3d dabd
000000b0: 9f01 1fbe 20a4 c0bc 00b5 fabd 2e33 6d3c
000000c0: c68d 803d 542e e63d c4e6 d43c 63c4 2dbd
000000d0: f767 23bd 5208 0f3e 115e dbbb 4d2e 243e
000000e0: a92b 82bd 510b 923d c4aa cf3d f78e a2bc
000000f0: d92b 383e 2682 17be f1da d1bd 88a0 81bd
00000100: 03b6 80bd fdd1 15be edef bcbc 3b8c b73c
00000110: 8991 9a3d 3f0d a2bc 593f 9f3d be49 233d
00000120: 34cb d7bd 96a6 743d 1ea8 c4bd acef e0bd
00000130: d9d4 ac3d 9c1e 25bd 1b7d d6bc 8ae6 af3c
00000140: 4cb0 04bc b00b ab3d a3af 973d 9f94 3dbd
00000150: 4f20 963d a642 393d 1458 5e3d 5140 bebd
00000160: 6428 cc3d d7e6 a03d f712 b8bd 1985 e6bb
00000170: b702 a9bd aa2d 3a3d e6b1 bfbd 9b15 fc3c
00000180: 1efa 55bc 4add eb3d d6b4 e3bc dd07 913d
00000190: a2c6 87bd 6fcb 813d 8c7a 053e 447a 5cbd
000001a0: 05a6 d33d e314 803c ba08 cdbc 5415 35bd
000001b0: bd7c cdbc 5244 cf3c 8059 143e c0de b93c
000001c0: d25f 94bc 6108 ef3d 6840 cb3d 1b49 2e3d
000001d0: 2589 903d ece3 f038 0717 383d 378c 7cbd
000001e0: 0d14 a3bd 52dd 25be f812 89bd 5a39 38be
000001f0: 2fef 16be ec9e bebd bc56 103e 443f 2e3d
00000200: 5f76 4cbe 1de3 02be 8db5 bd3c f028 12be
00000210: a609 95bd f5d9 a83d f903 203d 2108 6dbd
00000220: 84d1 49bd bd9d 9bbd 1c90 c93d 4906 49bc
00000230: 34d0 4cbd 62ed 9cbb 5ec3 8f3d 9edf 6ebd
00000240: 3670 883d 7a84 cb3d 81be 283d d6a6 a5bd
00000250: e813 1dbd e5c0 ff3d 7745 ed3c 1f36 32bd
00000260: 54ef e23d 6ad4 953d 069c ddbd 01e8 a23b
00000270: 32e4 173d 14c6 643d fe28 db3d 99d9 3fbd
00000280: 4ccd d4bd 057e df3c aa8a 203d 02e9 c2bc
00000290: 4e6c 353d 76e2 c1bd e54b f7bc d6fc 4ebd
000002a0: 8155 55bc b7c5 f23d 5cc4 543d c2fd ab3c
000002b0: 8099 07bd 7c70 be3d 0a73 79bd be85 32bd
000002c0: d925 f03d d6a4 263d 8508 94bd 8fd0 f13d
000002d0: b794 943d 2e87 ba3d 2bb8 e2bc a612 94bd
000002e0: ea15 d6bc 816e 4c3c 288f c13d 059a 213e
000002f0: 5cbd 09bd 138d 4f3c 80fc 6ebd f540 43bd
00000300: ea46 52bd b0ed 8fbd 130d a3bd b6cb ac3d
00000310: be90 9abd e6f1 973d ed77 813d b3a4 9d3d
00000320: ceb2 da3c 0a0e ed3d 476f 2e3c 2602 95bd
00000330: bf49 af3d 4693 b9bb 1468 c73d 80a0 1dbd
00000340: 2db6 113e 44fd 1b3e ad93 2a3d bb07 f4bd
00000350: 2da1 c2bd 51ec 4f3c 8d55 f93c e1c5 0d3d
00000360: 948c 90b9 4a2b 1f3e cd0a fb3d 66f1 5c3d
00000370: 10c8 153e c7d5 35bd cdfa 9e3d cf6f 0cbd
00000380: 7a25 ca3d d9a2 183e 1b93 8c3c 3cc9 323e
00000390: 4955 f03c 6ec8 ef3d 952b 3d3e f4d2 453d
000003a0: 4b8f 723c b0d3 193d 0350 5abc 23ba 8b3c
000003b0: 0a61 a53a ccfd e4bb 400c f43d 11f6 9d3d
000003c0: b0d4 2abc 7465 283d a0c9 e23d 5660 95bd
000003d0: bc46 48bd 9a11 953d dc5a 6fbd 7876 293d
000003e0: 3854 173d ee55 0dbd f00a 603d 1002 29bd
000003f0: 5473 473d 325b 80bd 3670 cdbd 8db8 fdbd

fcs.0.bias f4 [30]
0.03126684 -0.11918519 -0.06895775 -0.072170414 -0.09540071 -0.07903503 -0.014611504 0.06453165
0.112227455 0.1161261 -0.005753595 -0.0024258688 -0.056088287 -0.099909134 0.01934133 0.08684787
-0.048529685 -0.009313536 0.08114879 0.0519547 -0.13254866 0.08052137 0.11084403 0.11528086
-0.037161358 0.005781981 -0.09212081 0.021022135 0.1359383 0.02224443
00000000: a811 003d 5d17 f4bd b939 8dbd 15ce 93bd
00000010: 7361 c3bd 1edd a1bd 1765 6fbc 2b29 843d
00000020: 82d7 e53d 85d3 ed3d a788 bcbb 53fb 1ebb
00000030: d5bc 65bd 299d ccbd b571 9e3c 4cdd b13d
00000040: 10c7 46bd cd97 18bc 5631 a63d 74ce 543d
00000050: d6ba 07be 63e8 a43d 3202 e33d 5f18 ec3d
00000060: 8236 18bd c676 bd3b d6a9 bcbd 9d36 ac3c
00000070: 6933 0b3e f339 b63c

fcs.1.weight f4 [15, 30]
0.09104527 0.03716617 -0.011585297 -0.021975655 0.25756687 -0.055218928 -0.20677748 -5.8419522e-05
0.06145963 0.030132446 -0.07156875 -0.1612509 -0.18047825 -0.110328645 0.016190559 0.18844067
0.062157147 0.1411351 -0.020057783 -0.08044541 0.039220132 0.011489001 0.08273418 0.10248303
0.12689652 -0.097728305 -0.0689064 0.07233842 0.15463299 -0.09330025 0.06512016 -0.13083237
0.025025897 0.014988025 -0.03284799 0.10358448 -0.10422866 -0.00019983642 -0.1852859 0.027248833
-0.07837606 -0.22570509 0.13655202 0.15729128 -0.059939347 0.041906506 -0.0081354175 -0.14910723
-0.15560605 0.14032365 0.1895084 0.07229957 -0.050553557 -0.12704064 -0.08209238 0.13345249
-0.0777655 0.004083481 0.13656692 -0.034499437 0.012860145 -0.07626895 0.060315784 -0.020731384
-0.21390435 -0.057741944 0.06522758 -0.09638707 -0.12228151 0.010358217 -0.12456174 -0.018982219
0.09774656 0.1246106 0.10343288 0.0809734 0.122391865 0.11672532 -0.10874768 0.11523708
0.13297786 -0.09243271 -0.14215124 0.013117398 0.01735087 0.09440785 0.10847842 0.0126909735
0.12472171 0.13967896 0.08520232 0.10587589 -0.17553863 0.13330586 -0.09086155 -0.04065281
-0.03206901 0.06540809 -0.14561877 0.0879245 0.052127276 0.02304357 0.19605877 0.024888668
0.04421118 0.017934175 0.21524307 0.044709094 0.056122147 -0.017804304 -0.0638076 -0.003237554
0.027963055 -0.056138434 -0.081800915 -0.053486556 -0.08331275 -0.05006588 0.086747535 0.20054652
0.16733077 0.026999617 0.12403241 -0.04628318 -0.11199038 0.11806702 0.10858944 0.0029273175
0.08715628 0.17436962 -0.13092093 -0.06325348 -0.008784123 -0.15748826 -0.17226402 -0.20987286
0.1935839 0.03166844 -0.08983506 0.010775089 0.010196439 -0.06482877 0.041547004 -0.038513754
-0.034817357 0.040646523 -0.045567892 -0.06443028 -0.114285424 -0.014642678 -0.040313646 0.111072935
-0.1641756 0.07344712 0.2057993 -0.08520455 -0.040301457 0.1285219 0.03860317 -0.1811757
-0.13530229 0.18663216 0.06899715 0.050836552 -0.106944196 0.032864127 -0.19794421 -0.10356664
0.06488558 0.009235471 0.084474206 0.06281668 -0.14875953 0.0029931085 0.11990743 0.047437668
0.14699231 0.15113467 0.09173202 -0.0564761 -0.13918085 0.078070864 0.17658842 -0.07141575
0.086031735 0.09298746 -0.085525826 0.13429391 -0.16709489 -0.08231526 0.08052215 -0.0047388785
0.033196855 -0.021293018 -0.14644922 -0.03782958 0.063332036 -0.22539991 -0.07511272 -0.18111064
-0.14389472 0.11964085 -0.18644497 -0.06786577 0.04038798 0.06455081 -0.120699145 -0.14738551
-0.0759655 -0.17560463 0.15682064 -0.19780248 0.060927857 0.03234804 -0.04708795 -0.0660084
0.057418633 0.0021182364 -0.021008499 0.12415101 0.04971587 -0.18123832 -0.15916362 -0.019741362
-0.07766817 -0.059893314 0.043866426 0.1639394 -0.17188303 -0.09750782 -0.13941164 -0.123163946
0.045538403 -0.061298355 0.0071549146 0.05773509 0.14095801 -0.14520998 -0.075509496 0.11949506
-0.090665385 0.0733968 -0.15217373 0.00021255048 -0.045903448 0.13060558 -0.01967274 -0.14594352
0.18619686 -0.118360355 0.0047383388 0.1741376 -0.08657868 0.17516439 0.008164725 -0.10826173
00000000: f175 ba3d 8e3b 183d 42d0 3dbc 4a06 b4bc
00000010: cedf 833e 3e2d 62bd 7abd 53be 7c07 75b8
00000020: 18bd 7b3d 52d8 f63c a392 92bd f51e 25be
00000030: 4acf 38be fcf3 e1bd 10a2 843c 97f6 403e
00000040: 7e98 7e3d b885 103e 3850 a4bc 90c0 a4bd
00000050: 4aa5 203d 5d3c 3c3c 8a70 a93d 9fe2 d13d
00000060: 29f1 013e c725 c8bd cc1e 8dbd 2a26 943d
00000070: 1c58 1e3e 3414 bfbd b85d 853d ecf8 05be
00000080: 1c03 cd3c 5590 753c 9d8b 06bd 1a24 d43d
00000090: d675 d5bd 2e8b 51b9 96bb 3dbe f238 df3c
000000a0: a183 a0bd 3c1f 67be 4bd4 0b3e f710 213e
000000b0: f682 75bd 28a6 2b3d 6a4a 05bc 91af 18be
000000c0: 3157 1fbe 01b1 0f3e 7d0e 423e cc11 943d
000000d0: 3f11 4fbd f116 02be 0d20 a8bd c5a7 083e
000000e0: 8543 9fbd b9ce 853b 33d8 0b3e 484f 0dbd
000000f0: 5cb3 523c e532 9cbd af0d 773d ddd4 a9bc
00000100: be09 5bbe d182 6cbd 0a96 853d 9666 c5bd
00000110: ba6e fabd 83b5 293c 3a1a ffbd 9980 9bbc
00000120: 592f c83d d833 ff3d 9ed4 d33d 62d5 a53d
00000130: 96a8 fa3d af0d ef3d 1bb7 debd 6b01 ec3d
00000140: 592b 083e 5c4d bdbd 1890 11be 5bea 563c
00000150: 6923 8e3c e758 c13d ef29 de3d cded 4f3c
00000160: 196e ff3d 0008 0f3e 8e7e ae3d 75d5 d83d
00000170: 66c0 33be 5581 083e 9f15 babd 9083 26bd
00000180: cb5a 03bd adf4 853d 161d 15be c311 b43d
00000190: 6983 553d dec5 bc3c a1c3 483e 52e3 cb3c
000001a0: c816 353d b1ea 923c ae68 5c3e e220 373d
000001b0: 56e0 653d 55da 91bc 8fad 82bd 252d 54bb
000001c0: c712 e53c 6af1 65bd 3d87 a7bd b814 5bbd
000001d0: e09f aabd e111 4dbd b1a8 b13d 115c 4d3e
000001e0: c258 2b3e 4d2e dd3c b404 fe3d 6f93 3dbd
000001f0: 365b e5bd 1fcd f13d 2464 de3d 3dd8 3f3b
00000200: fe7e b23d f38d 323e 2310 06be 0a8b 81bd
00000210: 48eb 0fbc 9a44 21be fb65 30be e9e8 56be
00000220: dc3a 463e c4b6 013d 72fb b7bd 008a 303c
00000230: f70e 273c f2c4 84bd 312d 2a3d 99c0 1dbd
00000240: a59c 0ebd f87c 263d 66a5 3abd 06f4 83bd
00000250: 7a0e eabd d8e7 6fbc ec1f 25bd 357a e33d
00000260: a61d 28be 726b 963d 0dbd 523e b97f aebd
00000270: 2413 25bd 3f9b 033e 5c1e 1e3d 1f86 39be
00000280: af8c 0abe 801c 3f3e 614e 8d3d fd39 503d
00000290: 8f05 dbbd 899c 063d e3b1 4abe bf1a d4bd
000002a0: bbe2 843d 5f50 173c d000 ad3d 08a6 803d
000002b0: 6b54 18be 0728 443b 0792 f53d 004e 423d
000002c0: 2785 163e 0cc3 1a3e ffdd bb3d 7c53 67bd
000002d0: 6d85 0ebe 9ee3 9f3d 98d3 343e 6c42 92bd
000002e0: 6831 b03d 3670 be3d 2a28 afbd 5884 093e
000002f0: ec1a 2bbe e794 a8bd cce8 a43d 9848 9bbb
00000300: 6df9 073d b26e aebc c9f6 15be 31f3 1abd
00000310: 3ab4 813d 3ccf 66be b3d4 99bd 1175 39be
00000320: 2359 13be 4306 f53d 6eeb 3ebe 35fd 8abd
00000330: de6d 253d 3733 843d 1d31 f7bd 3aec 16be
00000340: cd93 9bbd b3d1 33be 9795 203e bc8c 4abe
00000350: 7d8f 793d 617f 043d 4bdf 40bd 692f 87bd
00000360: cd2f 6b3d 1cd2 0a3b 041a acbc e242 fe3d
00000370: dea2 4b3d 8a96 39be cafb 22be a3b8 a1bc
00000380: 7d10 9fbd b152 75bd 48ad 333d bbdf 273e
00000390: 1b02 30be 2eb2 c7bd edc1 0ebe 613d fcbd
000003a0: 7a86 3a3d fc13 7bbd c673 ea3b a17b 6c3d
000003b0: 4c57 103e edb1 14be b9a4 9abd d3b9 f43d
000003c0: c6ae b9bd 1051 963d 6ed3 1bbe 16e0 5e39
000003d0: 4105 3cbd 78bd 053e ba28 a1bc 3872 15be
000003e0: 64aa 3e3e ea66 f2bd 1144 9b3b 2151 323e
000003f0: 2a50 b1bd 4b5e 333e 57c5 053c 53b8 ddbd

fcs.1.bias f4 [15]
0.14820445 0.003222349 -0.06354017 0.012707636 -0.1757074 -0.042771228 0.08682252 -0.02332053
0.019330774 0.09169696 0.12100615 0.14307575 0.071167484 0.13044456 0.11039949
00000000: e8c2 173e 0c2e 533b 5921 82bd b033 503c
00000010: a4ec 33be e230 2fbd 01d0 b13d b20a bfbc
00000020: 925b 9e3c 9ecb bb3d 13d2 f73d 7382 123e
00000030: 42c0 913d 4293 053e 2119 e23d

fcs.2.weight f4 [1, 15]
-0.059453342 -0.28724208 -0.32647732 0.31897306 -0.13249119 0.3252055 -0.25613552 -0.3498637
0.1261664 0.20307246 -0.16971849 0.17019188 -0.24213932 0.19217497 0.11147499
00000000: 5985 73bd 6511 93be 0928 a7be 7050 a33e
00000010: c5ab 07be 5681 a63e 3224 83be 5621 b3be
00000020: c431 013e 3af2 4f3e afca 2dbe c846 2e3e
00000030: 5ff3 77be 84c9 443e 004d e43d

bcs.0.weight f4 [30]
0.9811773 1.0197213 1.0485402 0.9501712 1.0 0.9396012 1.047191 0.990414
1.0808793 0.97023755 1.0278311 1.0264499 1.007518 0.9671164 1.0307492 0.9655914
1.0 1.0052633 1.0464157 1.0 0.9954724 0.96553266 0.9884307 1.0109922
1.0 0.96800566 0.95164037 0.974074 0.97305375 1.0255524
00000000: 6f2e 7b3f 3a86 823f 9136 863f 6b3e 733f
00000010: 0000 803f b489 703f 5b0a 863f c68b 7d3f
00000020: 415a 8a3f 7d61 783f f88f 833f b662 833f
00000030: 5af6 803f f194 773f 97ef 833f ff30 773f
00000040: 0000 803f 78ac 803f f3f0 853f 0000 803f
00000050: 47d7 7e3f 262d 773f cb09 7d3f 3168 813f
00000060: 0000 803f 38cf 773f b49e 733f ea5c 793f
00000070: 0d1a 793f 4d45 833f

bcs.0.bias f4 [30]
-0.030363148 0.014542643 -0.03791052 -0.02906331 0.059942495 -0.01705359 -0.016199142 0.0384151
0.016848564 -0.04733663 -0.053267762 0.030738382 -0.051177774 0.033291355 -0.053059258 -0.0040806443
-0.059378188 -0.026974572 -0.002342395 -0.015999753 0.00065469573 0.006503081 -0.030531343 -0.0005515598
0.055491973 0.03257998 0.05151344 0.03567343 -0.011541195 -0.04155653
00000000: 23bc f8bc 4444 6e3c 1048 1bbd 2e16 eebc
00000010: 4386 753d f8b3 8bbc 10b4 84bc 2759 1d3d
00000020: 0006 8a3c 0ee4 41bd 4c2f 5abd 0fcf fb3c
00000030: c99f 51bd 845c 083d aa54 59bd edb6 85bb
00000040: 8b36 73bd c7f9 dcbc de82 19bb ea11 83bc
00000050: e39f 2b3a cc17 d53b de1c fabc 8d96 10ba
00000060: 8d4b 633d 9672 053d c2ff 523d 4d1e 123d
00000070: 4817 3dbc 2e37 2abd

bcs.0.running_mean f4 [30]
0.041327603 0.07440206 0.020332428 0.47064397 0.0 0.15548468 0.18045391 1.8221814e-10
0.110339366 0.057116285 0.19169128 0.015092699 0.023040824 0.120257266 0.018904164 0.07229124
0.0 0.0091153495 0.13919935 0.0 0.025848934 0.5524155 0.2829361 0.5882139
0.0 0.003242055 0.22140561 0.33717147 0.13908991 0.3104728
00000000: 2247 293d 1b60 983d 3190 a63c 3ff8 f03e
00000010: 0000 0000 6037 1f3e e9c8 383e d959 482f
00000020: 9bf9 e13d c4f2 693d b84a 443e 5e47 773c
00000030: 1cc0 bc3c 7149 f63d e8dc 9a3c 6e0d 943d
00000040: 0000 0000 8c58 153c 468a 0e3e 0000 0000
00000050: 25c1 d33c 1a6b 0d3f 00dd 903e 3095 163f
00000060: 0000 0000 a878 543b 27b8 623e bda1 ac3e
00000070: 966d 0e3e 4af6 9e3e

bcs.0.running_var f4 [30]
0.002148814 0.0035210364 0.0011209154 0.014999604 5.80299e-09 0.011403139 0.0071749263 5.8122285e-09
0.003725637 0.0032503407 0.0035703864 0.0016701026 0.0019909686 0.0058574094 0.0013600169 0.0043255473
5.80299e-09 0.0006006344 0.0056787548 5.80299e-09 0.0019671638 0.014023639 0.019286754 0.03277191
5.80299e-09 0.000150979 0.011955408 0.010381022 0.0071032136 0.0063571897
00000000: 1ed3 0c3b 30c1 663b aeeb 923a e6c0 753c
00000010: a463 c731 3bd4 3a3c a51b eb3b e7b4 c731
00000020: d129 743b ab03 553b 25fd 693b 58e7 da3a
00000030: e97a 023b 83ef bf3b 9842 b23a 52bd 8d3b
00000040: a463 c731 e473 1d3a d914 ba3b a463 c731
00000050: 88eb 003b 68c3 653c 41ff 9d3c d73b 063d
00000060: a463 c731 1e50 1e39 9ee0 433c 2915 2a3c
00000070: 13c2 e83b f94f d03b

bcs.1.weight f4 [15]
0.97743225 1.151793 1.1213568 1.1407448 1.15341 1.1526896 1.093096 1.1503117
1.1780126 1.0430673 1.0182052 1.1528312 1.0088578 1.135841 1.1034054
00000000: 0039 7a3f f46d 933f 9f88 8f3f ed03 923f
00000010: f0a2 933f 558b 933f 92ea 8b3f 6a3d 933f
00000020: 1ec9 963f 3b83 853f 8c54 823f f98f 933f
00000030: 4122 813f 3d63 913f 633c 8d3f

bcs.1.bias f4 [15]
0.02592333 0.030652259 0.029759599 -0.030193567 0.03406658 -0.030327288 0.029610632 0.030059705
-0.037089467 -0.028916243 0.02827176 -0.03313291 0.02806021 -0.03155336 -0.032623358
00000000: 2a5d d43c 721a fb3c 67ca f33c 8058 f7bc
00000010: 6689 0b3d ef70 f8bc ff91 f23c c53f f63c
00000020: 20eb 17bd c2e1 ecbc 2e9a e73c 60b6 07bd
00000030: 87de e53c 193e 01bd 12a0 05bd

bcs.1.running_mean f4 [15]
0.30676457 0.26567736 0.13434649 0.13698032 0.06137346 0.18317643 0.29016265 0.13733159
0.18136656 0.28952253 0.26836362 0.26205686 0.3578422 0.28360003 0.27086702
00000000: 3f10 9d3e dd06 883e 2092 093e 9244 0c3e
00000010: bd62 7b3d 9a92 3b3e 3390 943e a7a0 0c3e
00000020: 28b8 393e 4c3c 943e f566 893e 512c 863e
00000030: 1837 b73e 0634 913e 15af 8a3e

bcs.1.running_var f4 [15]
0.14519227 0.11878938 0.05636691 0.03906734 0.017616011 0.05367603 0.1371667 0.03627716
0.06102564 0.2147331 0.1287221 0.10093445 0.21103969 0.17348301 0.08470245
00000000: 48ad 143e d947 f33d fde0 663d 1305 203d
00000010: 744f 903c 66db 5b3d 6d75 0c3e 5c97 143d
00000020: 06f6 793d fee2 5b3e bacf 033e b9b6 ce3d
00000030: ca1a 583e 88a5 313e 7a78 ad3d
