model.pt (torch, 41051 bytes, 26 tensors)

fcs.0.weight f4 [70, 60]
000000 87 2c 9c 3c 4e a2 e0 bd 8c 11 e7 3d bf 64 c0 3d
       0.019064201 -0.10968457 0.11282644 0.09394216
000010 6b 3c 21 bd 35 e1 15 3e aa 55 4e bd b9 19 44 bd
       -0.03936426 0.14636691 -0.050374664 -0.047876094
000020 76 2b cb bc af bd d6 3d cb 10 c7 3c b3 a0 64 bb
       -0.024800997 0.10485398 0.0243 -0.0034885823
000030 c3 f0 0a 3d dc b1 2d 3d ea c1 df 3d 23 bf 1d bd
       0.033921015 0.042405948 0.10925658 -0.03851236
000040 02 ee 31 bd 50 ca 06 3e b0 cf d4 bd 48 e7 ad 3d
       -0.043439873 0.13163114 -0.10391176 0.08491379
000050 35 5c 23 bc c2 eb eb 3d 96 14 6c 3d 1a 8c 9f 3d
       -0.009970714 0.115195766 0.05763682 0.07790394
000060 b5 e6 bb bd c2 eb db bd 5e 2d d4 3c 6b 22 47 bd
       -0.09174863 -0.107383266 0.025900539 -0.048616808
000070 07 f8 16 bd 34 0f a5 3c b1 6f 9b 3d 31 a3 10 3d
       -0.03685763 0.020148851 0.07589663 0.03531188
000080 22 4b 8d bd 06 56 01 3e 08 e8 94 bd 07 08 8b bd
       -0.06899096 0.12630472 -0.07270819 -0.067886405
000090 f0 d6 a8 3d 12 12 ac bd 55 77 8a 3d d4 90 38 3c
       0.08244121 -0.08401884 0.06761042 0.0112649985
0000a0 2d c4 c0 bc 40 6a b4 bd 7f fd a7 3d 77 cc 98 bd
       -0.023531044 -0.08809328 0.082026474 -0.074608736
0000b0 f1 f1 ca bd d9 a2 37 3d 99 52 60 3d 78 7d b6 bd
       -0.09909428 0.044833038 0.05476627 -0.0891065
0000c0 a9 71 b2 bd b3 17 b0 3b cb fc a2 3d f2 57 21 3d
       -0.08713085 0.005373919 0.07958373 0.03939051
0000d0 30 99 35 3d 95 24 11 3e 0c 19 30 bc 40 38 b9 bd
       0.044335544 0.14174111 -0.010748159 -0.09043932
0000e0 21 a2 01 3c 9d 30 cf 3d 77 f8 e2 bd 59 7d ae 3d
       0.00791219 0.10116694 -0.11082547 0.08520002
0000f0 5e 91 33 3d 90 50 10 bd 9e 11 e8 3d 8e 6a 9e bd
       0.043839805 -0.03523308 0.11331485 -0.077351674
000100 af fa d9 3d 32 1c be bd 0e 91 a6 3d 5f 22 02 be
       0.10643517 -0.092827216 0.08133136 -0.12708424
000110 8f eb 03 be fd 30 9b bd ad 8c 7a 3c f6 99 4c 3c
       -0.12882827 -0.07577703 0.015292329 0.012487879
000120 d2 09 85 3d b0 52 54 bd 0e 6e cf bd 5e ee c5 3d
       0.06496014 -0.05183667 -0.10128413 0.096646056
000130 c7 65 d2 3d f2 1d ba bc 37 e5 5d 3d 51 be 8c 3d
       0.10273319 -0.022719357 0.054173674 0.068722375
000140 02 f8 0a 3e e9 ef 01 3e 5f b0 26 bd 9c a2 c8 bd
       0.1357117 0.12689175 -0.040695544 -0.0979664
000150 0a 9a b0 bd 68 69 76 3d 8a 13 8d 3d 12 55 eb 3b
       -0.086231306 0.060159117 0.068884924 0.007181772
000160 d5 19 e9 bd 92 d0 5e 3d 64 81 85 bc fc a8 0e be
       -0.1138188 0.054398127 -0.01629705 -0.1393165
000170 9c ee 84 3c b2 73 88 bc d2 1d 3e bd 12 12 6e bd
       0.016227059 -0.01665673 -0.046415158 -0.058122702
000180 61 c3 d5 3d bd a5 e0 3d a4 27 a2 3b 6e 07 ca 3c
       0.10437656 0.10969112 0.004948573 0.024661746
000190 1b 46 9f bd 3a f0 9a 3d b0 87 e3 bd 2a cd ee bc
       -0.077770434 0.07565351 -0.11109865 -0.029150564
0001a0 77 6c d7 bd 9d 03 4a bd 55 d0 12 3c 64 fb 73 bd
       -0.10518735 -0.049319852 0.008960803 -0.059565917
0001b0 3e 40 01 3c 16 4b aa 3d 8c a7 bc 3d 70 a5 50 3c
       0.007888852 0.08315103 0.092116445 0.012734756
0001c0 4e f7 1d bd b3 40 cd 3d f3 de b1 3c 4f 1f d4 3d
       -0.038565926 0.10022106 0.021712756 0.10357534
0001d0 1c 6a 77 3d 36 86 d1 bd b9 e8 bb bd 69 2b ed 3c
       0.06040393 -0.10230677 -0.09175248 0.028951364
0001e0 cb 62 97 3d 8d 7f c2 bd a6 e1 86 bb f3 cb 12 bd
       0.0739189 -0.09496985 -0.004116255 -0.035839032
0001f0 7c f4 c0 bd 64 3c 99 bc 6d cc e6 bc a6 de a4 bd
       -0.09421632 -0.018705554 -0.02817365 -0.08050279
000200 43 04 e4 bc dc 51 2a 3c c5 cf 60 bb 39 20 eb bd
       -0.027834063 0.010395493 -0.0034303528 -0.11480755
000210 40 67 2e bc c9 21 84 bb 7b 53 e8 3d be 85 df bd
       -0.010644734 -0.004032348 0.11344048 -0.10914181
000220 be 94 d5 bd b1 01 9d bd f5 72 b5 3d 69 64 00 bd
       -0.10428761 -0.07666338 0.08859817 -0.03134576
000230 6d 6e fe 3d 51 36 d0 bd e0 cd 18 bd 64 e1 c9 bd
       0.12423406 -0.1016661 -0.037305713 -0.09857443
000240 0e 57 a9 3c d7 dc 49 bd cf 28 e0 bd 06 79 07 bd
       0.020671394 -0.049282875 -0.109452836 -0.0330744
000250 cb 13 ec 3d 46 b9 43 3d 07 8b de 3d 12 01 92 3b
       0.11527213 0.047784112 0.10866361 0.004455694
000260 2f 79 da bd 7a 25 a8 bd 4f 90 05 3e d4 74 82 bd
       -0.10667645 -0.08210273 0.1304333 -0.063699394
000270 32 f2 d2 3d 8e 09 f1 bd c7 78 7a bd 92 b2 d6 3d
       0.10300101 -0.117694005 -0.06115034 0.10483278
000280 fb f0 ce bd 04 59 e2 bc f7 01 9f bc fd ba 09 3d
       -0.10104557 -0.027630337 -0.019410117 0.03362559
000290 8f c1 d4 bd ec ba c5 3d 02 e8 21 bb a5 83 0c 3d
       -0.10388481 0.09654793 -0.0024704938 0.034305234
0002a0 0f 33 a9 3c 20 0e b0 bd 5e 20 08 3e a3 a2 a1 bc
       0.02065423 -0.08596444 0.13293597 -0.019730872
0002b0 38 01 33 3d c4 f4 80 3d d7 5a 91 bd be b5 b4 bd
       0.043702334 0.06296685 -0.070974045 -0.08823727
0002c0 b2 90 80 3d 32 3d f7 bc 39 84 d0 bd b8 19 c4 bc
       0.062775984 -0.030180547 -0.101814695 -0.023938045
0002d0 e5 81 6e bc e3 36 38 3d d3 a4 36 3c df c4 41 bd
       -0.014557336 0.04497422 0.011147696 -0.04730689
0002e0 b9 cd b5 3d df 3d f6 bd 5d 30 51 bc fa 7e 82 bd
       0.08877129 -0.1202352 -0.012767878 -0.06371875
0002f0 dc 7d 01 be 15 2b 8f bc 1a 29 be bd 29 58 dc bc
       -0.12645668 -0.017476598 -0.09285183 -0.026897507
000300 09 27 3b 3d a4 da 3c 3d e0 54 48 3d ad 31 13 bc
       0.045691524 0.04610695 0.048909068 -0.008984012
000310 9f 6a 24 3c 3c 4f b3 bc 08 03 70 bd 7c 56 ee 3d
       0.010035186 -0.021888368 -0.05859664 0.11637589
000320 6a d6 c2 bd fa 56 de 3d 41 2e a1 3b 9a 9b f0 bd
       -0.095135525 0.10856433 0.004918844 -0.11748429
000330 30 1e 7e 3c 02 19 d8 3d 15 74 a9 3c e2 39 59 bc
       0.015510127 0.10551645 0.020685235 -0.013258429
000340 d1 31 cd bd e4 e5 dc 3c fe e7 b5 3c f4 ae b8 3d
       -0.10019267 0.02696509 0.022205349 0.09017745
000350 62 9a f0 bb ac f4 ea bd 2b df 34 3d b6 c3 8c 3d
       -0.0073426226 -0.11472449 0.044158142 0.068732664
000360 5d 73 e0 bd c2 51 a7 bd 65 b8 5f 3d 7a 25 e8 3d
       -0.10959504 -0.08169891 0.05461921 0.11335273
000370 f2 b2 5f 3d 18 7a d6 3d 38 a5 34 3d 4d 61 49 bd
       0.054614015 0.10472506 0.044102877 -0.04916506
000380 85 3e ec 3d d9 76 29 3d 96 e0 93 bb fa f1 bf 3d
       0.11535362 0.041373108 -0.0045128567 0.09372325
000390 e8 d6 63 3c 75 17 56 bd 5d 74 f5 3d 75 f6 39 3c
       0.013906218 -0.052268464 0.11985085 0.011350264
0003a0 ac fd 09 3e 1d cc d1 bc 6d 1a 96 3d 47 95 6d 3d
       0.13475674 -0.025610024 0.07329259 0.05800369
0003b0 d3 a4 92 3d 34 1a ce 3c 8e b4 81 bc 8a 3a 0f 3e
       0.07160344 0.025158979 -0.015833165 0.13987175
0003c0 e3 44 c5 3d a2 d6 f7 3d 7d 2a 89 3d 40 e8 98 bd
       0.0963228 0.12101485 0.06697557 -0.07466173
0003d0 79 2f 1c bd ef 5b 01 be d3 81 aa bb 18 50 83 3c
       -0.03813121 -0.12632726 -0.0052034645 0.016029403
0003e0 ba 96 3f 3d d9 34 ab bd e6 fe c7 bd ad b6 d1 3d
       0.046774603 -0.08359689 -0.09765415 0.10239921
0003f0 e0 81 c7 bd 57 2e 6a 3d 34 49 9c bd a4 9d 01 be
       -0.097415686 0.0571731 -0.0763115 -0.12657791

fcs.0.bias f4 [70]
000000 14 8d 3b 3d 02 d8 98 3d d6 78 f8 3d a1 e9 e6 bd
       0.04578884 0.07463075 0.121324226 -0.1127503
000010 0e e5 bc bc 50 4b 18 3d a7 d9 e7 bb c7 06 8e bd
       -0.02305844 0.0371812 -0.0070755067 -0.069348864
000020 99 87 e2 bd 03 48 8d 3c 40 05 a8 3d 0c 52 e8 bd
       -0.110610195 0.017246252 0.08204126 -0.11343774
000030 dd 7c db bd 8d 42 09 bd 07 9b 51 3d bc 2e 77 bd
       -0.10717175 -0.033510733 0.051173236 -0.060347304
000040 33 55 bd 3d 48 c7 23 bd 16 a7 1c 3b f9 00 75 bd
       0.09244766 -0.03998497 0.0023903302 -0.05981538
000050 2e 0c 01 be 7a d3 ae 3d 1c 4e ab bc f1 3f 5b bc
       -0.12602302 0.0853643 -0.020911269 -0.013381944
000060 76 b2 0b 3e 09 a1 e3 bc 7b 7e e2 bd df 71 ca bc
       0.13642296 -0.027786748 -0.110592805 -0.024712501
000070 cf 52 b5 3c 39 46 b6 3d 3d cc 99 bc 19 23 3d 3c
       0.022134213 0.08900113 -0.018774146 0.011544012
000080 cf c4 e5 3c ea f6 e3 bd 9b 08 af 3d cd f7 d7 3d
       0.028047947 -0.111310795 0.08546563 0.10545311
000090 8b 25 30 3b ab 61 a2 bd 43 dd da 3c 8b 91 ce 3d
       0.0026877846 -0.07928785 0.026716834 0.10086354
0000a0 73 c1 df bd da 33 35 3d 1d 3f e5 bd f8 a4 b7 bc
       -0.109255694 0.044238903 -0.111936785 -0.02241753
0000b0 b8 21 6a bc 14 ee aa 3d 55 1f 1a 3d 05 ae dc bd
       -0.014290266 0.08346191 0.037627537 -0.10775379
0000c0 9c 0b 29 3d 2d d6 2b 3d 42 f4 db bd e2 a6 c9 bd
       0.041270837 0.0419523 -0.10739948 -0.098462835
0000d0 8c e9 84 bd 67 72 91 bd 70 27 39 bc 68 4c ce 3d
       -0.06489858 -0.07101899 -0.011300907 0.10073167
0000e0 5e 5f 0b 3d 38 64 ce 3d a2 9e c1 3a 97 8b 25 3d
       0.034026496 0.10077709 0.0014772008 0.040416326
0000f0 80 a9 b7 bd fd 63 6b 3d f8 aa 86 bd bd 4e 05 3e
       -0.089678764 0.057468403 -0.065755785 0.13018318
000100 40 31 27 bb fe 0e c6 bd 20 f9 95 bb 1a 34 8d bd
       -0.0025511533 -0.09670828 -0.004576817 -0.06894703
000110 20 91 84 bc 09 da 2c bc
       -0.016182482 -0.0105500305

fcs.1.weight f4 [35, 70]
000000 01 93 87 bd d4 93 aa bd 7d 4d de bc eb 17 bd 3d
       -0.06619836 -0.08328977 -0.027136559 0.092330776
000010 2a 41 31 bd f1 a0 9b bc 8e 83 2c 3b 07 19 ba bb
       -0.043275036 -0.018997641 0.002632353 -0.005679253
000020 3e 48 b1 bc 96 f7 32 3d fb 3a eb 3d c2 b2 37 3d
       -0.021640893 0.043693148 0.11485859 0.04484821
000030 c8 7f e1 bc 39 39 c4 3d 8f f1 03 bd a7 62 49 bd
       -0.027526751 0.09581227 -0.03221279 -0.049166348
000040 7d ad f2 bd e3 61 9e bd 0b 93 8c bd 7f 51 dc 3d
       -0.118494965 -0.07733514 -0.06863984 0.10757732
000050 f6 54 c3 bb a8 ee d7 3d a6 36 82 bc 32 3e 17 3b
       -0.005961056 0.10543567 -0.015895199 0.0023077843
000060 df 97 49 3d 26 33 f6 bd 58 91 c9 3d 1d a3 96 bd
       0.0492171 -0.120214745 0.09842175 -0.0735533
000070 02 34 61 3d 2c 00 07 bd 53 39 2f 3c 0b 1f f1 3d
       0.05498124 -0.03295915 0.0106948195 0.11773499
000080 45 d6 f7 3b 53 f5 03 bd 20 0f d1 3d ec 8e 8e bd
       0.0075633847 -0.03221638 0.10207963 -0.06960854
000090 86 70 76 3d 8d 48 ba 3d 9d 2e f0 3b 53 80 3a bd
       0.060165904 0.09095869 0.0073297755 -0.045532536
0000a0 63 34 3b 3d d2 87 70 3d 18 fd 1b bd f2 19 ad 3c
       0.045704257 0.05872328 -0.038083166 0.021130536
0000b0 2c 9f 85 3d 2f 5d 58 3d 92 25 ba bd c0 c6 a7 3b
       0.065245 0.05282324 -0.09089197 0.0051201284
0000c0 9a 8f 09 bd 2f ca 32 bd 7e bd a2 bb 77 76 d1 3d
       -0.033584215 -0.04364985 -0.004966437 0.102276735
0000d0 90 13 e1 3d a4 33 d4 3d 7d cc 40 3d 53 81 98 3d
       0.109900594 0.10361412 0.047070015 0.07446542
0000e0 9a c8 cb bd ea a4 e8 3c 7e c3 0b be 50 0f 5e bd
       -0.09950371 0.02839895 -0.13648793 -0.054213822
0000f0 11 dd 5a bd cb b8 0b be 9c 9e 06 bd fc 79 e7 bc
       -0.05343348 -0.13644712 -0.032866105 -0.028256409
000100 9a bc 46 3d 1c 89 d4 bd 9c 8b c4 bd 79 bc 9d bd
       0.04851971 -0.10377714 -0.09596941 -0.07701964
000110 51 7a 08 be cd 5d 35 bd fd 9f 61 3c f8 61 a4 bd
       -0.1332791 -0.04427891 0.013771054 -0.080264986
000120 a5 a7 1f bc c5 6f f7 bc 1d 43 b9 bc 7a d9 65 3d
       -0.009744559 -0.030204663 -0.02261501 0.056115605
000130 c6 45 cd 3d 38 12 aa bd 6e cd e9 3c 03 0f 54 bd
       0.10023074 -0.08304256 0.02854034 -0.05177213
000140 e9 12 8a 3d 0b 5d 66 bd 5e 6d 8c bd cc 79 3c 3c
       0.06741888 -0.056241076 -0.06856798 0.011503648
000150 c8 41 84 3d 4c 6b af bd b5 9d 34 3d d4 e6 d9 bd
       0.06457859 -0.08565387 0.044095714 -0.1063973
000160 68 ab c6 3d 48 04 77 bb 6a 59 8a 3d ad 82 bc 3d
       0.09700662 -0.003769176 0.06755336 0.09204612
000170 96 87 05 3d f1 6f a4 bd bc e2 59 bd 9b 6c c5 3d
       0.032600008 -0.08029164 -0.053194746 0.096398555
000180 20 bd a3 bd 40 24 00 be 0d 23 c7 3d 5a f2 1e bd
       -0.07995057 -0.12513828 0.09723482 -0.038805343
000190 70 3e 86 bd 93 ff ae 3d 38 d7 e1 3d 11 ee 61 bd
       -0.06554878 0.08544841 0.11027378 -0.05515868
0001a0 b5 28 22 bd df 51 d3 bc d3 bf 0a bd 5e f6 b9 3c
       -0.039589603 -0.025795875 -0.033874344 0.022700485
0001b0 bc bd 87 bd 15 f5 03 bd 30 9b 78 3d 0e c7 ab 3d
       -0.06627986 -0.03221615 0.060694873 0.08387576
0001c0 c0 03 a3 bd ab 6e 1e 3d 50 6d ea 3d e6 fe cc 3d
       -0.079597 0.03867976 0.11446631 0.100095555
0001d0 a9 4e 3e 3c de f1 8e bc 69 48 d3 bd 31 0e ae bb
       0.011615434 -0.017449316 -0.103165455 -0.0053117503
0001e0 c6 9f d0 bd 1a b7 96 bd 61 45 a2 bd 50 ce 06 3d
       -0.10186724 -0.073591426 -0.07923389 0.0329116
0001f0 82 23 df 3d f2 cb f2 3c f9 66 85 3d b4 f3 5e 3d
       0.108954445 0.029638264 0.06513781 0.054431632
000200 da 32 dc 3b 84 b9 53 3d 5d 6b d3 bc ef 43 e1 3d
       0.006719929 0.051690593 -0.02580803 0.109992854
000210 9f a2 b6 bd 3e f3 b5 bd 60 d5 35 3d f9 9e 0f bd
       -0.08917736 -0.088842854 0.044392943 -0.035063718
000220 a0 9a c9 bc e7 5e 12 3d f5 59 85 bc 4a 10 75 3d
       -0.024609864 0.035735037 -0.016278246 0.059829988
000230 34 92 c0 3d 77 0c 8d bb 88 0e 8f bc e6 92 07 3d
       0.09402886 -0.0043044644 -0.017462984 0.033099078
000240 12 4e a8 bd df e1 a0 3d f8 d1 03 3e 2b c5 8a 3d
       -0.08218016 0.078555815 0.12873065 0.06775888
000250 0a aa 82 3d cd a5 6f 3d cd de 54 bd 9f 5c 8a bd
       0.063800886 0.05850773 -0.051970292 -0.06755947
000260 8b e3 fc 3d b2 f5 1c 3c 9a 4e 32 bd 2e 4f b7 bd
       0.12348088 0.009580063 -0.04353199 -0.08950649
000270 67 c7 e7 3d 97 b5 e5 bd 5f 13 24 3d fd c4 7a bd
       0.1131733 -0.11216276 0.040057536 -0.06122302
000280 9c 96 6c 3d a6 eb 1c bd b9 dd bd bd ee a5 9d 3d
       0.05776082 -0.03831067 -0.09270806 0.07697664
000290 4a 50 05 3e 1d 54 75 3d 87 fb 54 3d e8 c9 a8 3b
       0.13018909 0.05989467 0.051997688 0.005151022
0002a0 f8 be e5 3d 6a 72 5b 3d 4d d3 e5 bd c1 77 dd 3d
       0.11218065 0.05357591 -0.11221943 0.10813857
0002b0 cb 24 d9 bd ee 58 9d bd a5 90 79 3d a8 b6 d1 bd
       -0.10602721 -0.076829776 0.06092896 -0.10239917
0002c0 c8 a9 c7 bd 7f 7e e7 bc 5d 8a 0e bd da ad bb 3d
       -0.0974918 -0.02825856 -0.034799922 0.09164019
0002d0 7b 04 00 bd e9 59 8e 3d 46 78 b1 bc bd 73 3b bd
       -0.031254273 0.06950743 -0.021663796 -0.045764674
0002e0 ef 29 09 3c a0 01 b6 3d 65 8a a4 bd c0 19 a4 3d
       0.008371814 0.08887029 -0.08034209 0.08012724
0002f0 51 bb c2 bc 37 f0 5c 3d 97 ff ba 3d 5e 7a 3a 3c
       -0.02377096 0.053940024 0.09130781 0.011381714
000300 0e 07 dc bc f9 9e b9 3d e5 fd 50 3d 8b 2f d5 bc
       -0.026858833 0.09063525 0.051023383 -0.026023647
000310 9c 65 c8 3c 11 48 ad 3d 14 1a 8e bd db 64 23 bd
       0.024462514 0.08461011 -0.06938568 -0.039891105
000320 5c 6a 3f bd b6 0d e9 3d d4 d8 96 3d 9e c0 14 bd
       -0.04673229 0.11379568 0.073655754 -0.036316507
000330 03 22 09 bd f0 a1 ed 3d 93 04 99 bd 2a a9 40 3d
       -0.0334797 0.11603153 -0.074715756 0.047036327
000340 7b ec 28 bd c5 e2 5c bc d9 ff e9 3c 3d 93 9f bc
       -0.04124115 -0.0134818 0.02856438 -0.019479388
000350 2a b1 9d bc 48 b3 83 3d fe 4d 9e 3d 25 1f 4f bd
       -0.019249517 0.064306796 0.077297196 -0.05056681
000360 a1 50 18 bd dd f7 45 3c 72 a9 30 3d 4b 84 75 3b
       -0.03718627 0.012083021 0.043130346 0.0037462886
000370 30 6b 99 3c fa 1f 6b 3d 59 65 23 3d ad 9e 03 3e
       0.018727869 0.057403542 0.039891575 0.12853499
000380 12 e4 4b 3c 79 3d ff 3c 56 75 88 3d fc e0 8d 3d
       0.012444513 0.031157242 0.06663005 0.06927678
000390 e6 9a 2d bd 64 3b df bd f6 f1 c4 bd 9e 0a 1d bd
       -0.04238405 -0.109 -0.09616463 -0.038340203
0003a0 43 73 b4 bd 3e e4 8c 3d a9 f5 ff bc 95 c9 e8 3c
       -0.08811047 0.06879471 -0.03124507 0.028416434
0003b0 7a e8 b9 3d 46 93 bd 3c db c6 1e 3c 0b b1 ba 3b
       0.090775445 0.023141515 0.0096909655 0.0056973747
0003c0 f5 2b 09 3c c5 5d 16 3d 85 f4 af 3d ec 50 ae bd
       0.008372297 0.03671052 0.0859156 -0.085115284
0003d0 5c af cf bd 54 61 ed 3d 70 21 55 bd 1f 0c 9a 3d
       -0.10140869 0.115908295 -0.05203384 0.07521843
0003e0 fe a3 06 bd b1 54 7a 3d 4a 5b c1 bd b2 02 a9 3b
       -0.03287124 0.061115924 -0.0944124 0.005157792
0003f0 9c c0 9a 3d 90 31 20 3d 70 66 62 bd e0 fa cd bd
       0.075562686 0.039109766 -0.055273473 -0.10057616

fcs.1.bias f4 [35]
000000 72 58 09 bd 49 9a a0 3d 77 cf 66 bd 78 f8 a7 3d
       -0.033531614 0.078419276 -0.056350198 0.082016885
000010 4a 9e f2 3d 4e 03 00 be db 80 a9 bd b0 93 ac 3c
       0.118465975 -0.1250126 -0.0827653 0.021066517
000020 6f c8 c4 bd 30 3a b4 3c 33 a7 63 3d e0 13 9c 3d
       -0.09608542 0.022000402 0.055579375 0.07620978
000030 6f 7a f7 bd 83 64 87 3d 9e 36 ee 3d bb 1c 5c 3d
       -0.12083899 0.06610968 0.11631511 0.053738337
000040 15 43 b5 bc 28 7a 6c bd f8 36 e9 3d 33 af 9d bd
       -0.022126714 -0.057733685 0.113874376 -0.07699432
000050 e8 94 bd 3d 4e f3 c4 bd dc b8 80 3d da 10 f4 bd
       0.09256917 -0.09616719 0.06285259 -0.11917277
000060 1e 1c 91 ba a9 cb 89 bd 2d 91 20 bd 62 3b b6 3d
       -0.0011071002 -0.06728298 -0.03920095 0.08898045
000070 55 62 2c 3d 1f ee fa bb 32 81 9c bc aa e1 5e 3d
       0.042085964 -0.007657781 -0.019104574 0.05441443
000080 ac 7a 2f 3d ef f7 aa bd 65 f0 e8 3d
       0.0428416 -0.08348071 0.113739766

fcs.2.weight f4 [16, 35]
000000 00 e2 98 3d fd 4d d1 3d 32 aa c7 bd f7 fa 0a 3e
       0.07464981 0.10219953 -0.09749259 0.13572298
000010 bf 27 a8 bd 82 ba d6 3d 78 da 98 3d 2c da d5 3d
       -0.08210706 0.10484792 0.074635446 0.104420036
000020 1e c5 c7 bd 1c 46 a8 bb cc 0e c9 3b ea 2d 30 3d
       -0.09754394 -0.005135311 0.006135797 0.043012537
000030 84 21 cc bd b7 a3 c3 3d 5b ff fa bd 00 41 a1 bc
       -0.0996733 0.095527105 -0.122557364 -0.019684315
000040 2f 55 4e bc 7c 5b cf bd da 3a 15 be f1 86 5a bd
       -0.012593552 -0.10124871 -0.14573231 -0.053351346
000050 71 df 04 be 7b be 37 bd 24 91 80 3d 84 f2 f5 bd
       -0.12975861 -0.04485939 0.062776834 -0.12009147
000060 2a 09 61 bd b6 04 8b bd 6f 0b 14 3c 7b 3a fb 3d
       -0.05494038 -0.06788008 0.009035929 0.12267014
000070 b7 fe 5f 3d 08 0b 1d bd 40 38 10 3d d3 7c 5e 3d
       0.054686274 -0.0383406 0.035209894 0.05431826
000080 be 79 13 3d 78 cf 1f be b4 15 1c bd 77 9c af bd
       0.036004774 -0.15606487 -0.038106635 -0.08574765
000090 45 80 07 be 71 58 8a 3a ef a2 8d 3d 68 e1 08 3e
       -0.13232525 0.0010554922 0.06915843 0.13367236
0000a0 4c 2f a5 bd 66 5a 9d 3d bf 3f 96 bc 59 6a 2c bd
       -0.08065662 0.07683258 -0.018340943 -0.04209361
0000b0 a1 e8 3d bd be 62 d1 bd db 06 e6 bc 1b 78 b5 bc
       -0.04636443 -0.10223912 -0.02807944 -0.022151997
0000c0 b0 14 ed 3d a1 f1 fe bd 9a b3 82 bd d1 2d 17 be
       0.115762115 -0.12448431 -0.063819125 -0.14763571
0000d0 d5 c6 8e 3a 7d b4 a5 3d e4 04 0e 3e 5a 81 e7 bd
       0.0010892997 0.08091066 0.13869053 -0.11303969
0000e0 a6 d4 bc 3d 8c d4 b1 3d 51 95 ab bd ab 76 af bd
       0.09220247 0.08683118 -0.08378089 -0.08567556
0000f0 e3 68 3f 3d fb 50 fb bc 88 2d 8e 3d b9 4f 7c 3c
       0.046730887 -0.030678263 0.06942278 0.015399867
000100 8e 9b 9d bd 83 28 2b be 67 01 e6 3d 9f 42 42 3d
       -0.07695685 -0.16714673 0.11230736 0.047426816
000110 ce d8 09 3e 62 4b 3e 3e 46 a0 b9 bd c3 86 2d be
       0.1346161 0.18583444 -0.09063773 -0.16945939
000120 13 52 21 3d 4a 1e f3 bd d7 fc 19 be 34 39 de bd
       0.039384913 -0.118710116 -0.15037857 -0.108507544
000130 9b a0 cc bd 77 0b 17 3d e5 af 29 3e 29 10 1c be
       -0.099915706 0.036876168 0.16571005 -0.1524054
000140 c3 a2 b5 bd a7 bd b9 3b 57 4d 8c bd 71 cd 08 bd
       -0.08868935 0.0056683603 -0.06850689 -0.03339905
000150 8c 90 ca bc 49 be 06 bd d4 da 2e bd 8e dc e3 3d
       -0.024727128 -0.032896314 -0.04268916 0.11126052
000160 7d a6 e7 3c 4d e2 9f bd fd 45 88 bd 40 36 00 bd
       0.02827763 -0.07806835 -0.06653974 -0.031301737
000170 a2 38 79 bd cb e8 a3 bd 72 53 bd bd be 2b 0c be
       -0.060845025 -0.08003386 -0.092444316 -0.13688561
000180 c7 da ae 3c 5b 73 cb bd 04 9c ea 3c 08 a1 0d 3e
       0.021344556 -0.09934112 0.028638847 0.1383096
000190 9e 4e eb 3d a6 8d 1e 3e a6 6e c2 bd 21 d8 d0 3d
       0.114896044 0.15483722 -0.09493761 0.10197473
0001a0 4a 9a 15 be 04 c5 96 bb 9f 70 80 bd 17 43 1d be
       -0.14609638 -0.004601123 -0.06271481 -0.15357624
0001b0 6c 12 f8 bd 2e e3 99 3d 64 54 21 be 5c 68 7c bc
       -0.12112889 0.07514034 -0.15754849 -0.015405741
0001c0 71 ea 9e 3d 1b 7f cc bd a1 92 be 3d 43 ba 91 3c
       0.0775956 -0.09985181 0.09305311 0.017789012
0001d0 84 ad d5 bd 42 4b bf 3d 36 37 6a ba 3b b0 28 3e
       -0.10433486 0.09340526 -0.00089346187 0.16473477
0001e0 16 1b 1c be e2 c1 1d be 26 de eb 3d f2 e4 da bd
       -0.15244707 -0.15405992 0.11516981 -0.10688199
0001f0 63 4d 08 3e ac db ca bd 4f 27 b8 bd 6d 9f 33 3d
       0.1331077 -0.0990518 -0.089918725 0.043853212
000200 f3 dc 44 3c ac 27 b1 3c 8a f6 01 be 70 a9 74 3d
       0.012015569 0.021625362 -0.12691703 0.0597319
000210 f5 7f 1f be d5 46 1c 3d 98 bb 8d bd 24 45 fd bd
       -0.15576155 0.03815349 -0.06920546 -0.12366703
000220 96 7a 8e bd 27 cd 22 be e9 19 02 be d1 7e 22 3e
       -0.06956975 -0.15898572 -0.12705196 0.15868689
000230 03 49 f6 bd ef ff b1 bd 36 58 03 3e a3 3d 6e 3c
       -0.12025645 -0.086913936 0.12826619 0.0145410625
000240 03 1e 65 3d 7f b2 1e be 3c 63 ce 3d 7b e6 64 bd
       0.055936825 -0.15497778 0.10077521 -0.055883866
000250 d7 96 d7 bd 07 86 16 bd b9 f4 85 3d 34 85 5f 3d
       -0.10526817 -0.036748912 0.06540818 0.05457039
000260 3b 31 42 3d 1f 67 31 3d e9 f5 9d 3d 7c 2f e7 3d
       0.04741023 0.043311235 0.07712919 0.11288354
000270 a1 85 16 3e b8 f7 9b 3d 21 0f f8 3d d0 97 25 ba
       0.14699413 0.07615608 0.121122606 -0.00063168723
000280 3c d0 1e be 9f 46 ad 3d 08 8e eb 3d c1 ab af 3d
       -0.15509123 0.084607355 0.115017 0.08577681
000290 50 87 2a 3e 87 14 0b be cf bd 20 bd e1 5e e8 3d
       0.1665318 -0.1358205 -0.039243516 0.11346222
0002a0 23 87 88 3d af 13 27 be 15 73 78 bd 1c 65 8e 3d
       0.066664 -0.16316102 -0.060656626 0.06952879
0002b0 7b 0d 1c 3e 66 c7 42 3b 6e b5 24 3e 8a 74 8d bd
       0.15239517 0.0029720902 0.16084835 -0.06906994
0002c0 28 9d 9a 3d 9d 13 1c 3e 39 c3 0c be 79 1a 0d be
       0.075495064 0.15241857 -0.13746347 -0.1377963
0002d0 ce d7 cd bd 8f 85 94 bd 99 b1 dd bd 78 91 9d 3c
       -0.10050927 -0.07252037 -0.1082489 0.019234404
0002e0 b5 b8 0b 3d 07 c2 01 be 65 8d fe 3c dd 21 2a 3e
       0.034111697 -0.12671672 0.031073282 0.1661448
0002f0 6d 46 e5 3c 55 90 79 3d 12 41 07 3d ce 62 2d bd
       0.027987683 0.06092866 0.03302104 -0.042330556
000300 1b 1c 24 be 88 4d 4b 3d dd 92 d2 3b ce 9d f3 3d
       -0.16026346 0.049634486 0.006426199 0.11895333
000310 5d ca 34 3e 4a 5e 94 bd e2 01 ab bd 9d f9 26 3e
       0.1765532 -0.07244547 -0.083499685 0.16306157
000320 02 4f e4 3d 72 6f e9 bd 09 b8 18 3e 8f 63 8f bd
       0.11147882 -0.1139821 0.14913954 -0.07001411
000330 4c 2a 0b 3e 2e c8 bd 3d ac ef 1a 39 33 36 d0 3c
       0.13590354 0.09266697 0.00014775869 0.02541647
000340 e8 68 87 3d 2b b1 2e bd bc 8c 84 3d a0 21 f2 3c
       0.06611806 -0.04264943 0.064721555 0.02955705
000350 c0 8e fe 3d 6a 93 07 3e f8 90 1c 3e 01 d4 8c 3d
       0.12429571 0.13239828 0.15289676 0.06876374
000360 46 36 db bd e0 4d c6 bd 07 db 8e bd 9c 92 b1 bd
       -0.10703711 -0.09682822 -0.0697537 -0.08670542
000370 e1 5e 32 be 8d 62 00 bd b2 42 10 3e dc 5d eb 3c
       -0.17419006 -0.031343985 0.14087942 0.02873128
000380 7f 48 52 3a 6d 31 c2 bd 30 c7 a2 3c 2f e0 90 bd
       0.0008021667 -0.094820835 0.01987037 -0.070740096
000390 a0 e6 a7 3d 03 47 ba bb 2e 5b 13 3e 13 22 1b 3e
       0.08198285 -0.005684735 0.14390251 0.15149717
0003a0 f7 fe 0b 3d ef 5a bf bd 5f 9a fd bc 2c f9 3b 3c
       0.0341787 -0.09343516 -0.030957399 0.011472981
0003b0 bc 2a 03 be 55 16 33 bd 02 8e 7f bb 5e 2c 03 3e
       -0.1280927 -0.04372247 -0.0038994555 0.12809893
0003c0 ea 7f b5 3c bb 57 c8 3d 4f 29 27 be 90 b0 72 3b
       0.02215572 0.09782358 -0.16324352 0.003703151
0003d0 e0 a5 da 3d 90 07 8e bd eb 96 41 3d 65 2e 53 3d
       0.106761694 -0.06935036 0.047263067 0.051557917
0003e0 51 9b a2 bc 69 24 71 3d 46 98 f1 3d f6 ae 28 bd
       -0.019849451 0.058872614 0.11796622 -0.04118248
0003f0 e2 42 b3 bd 7a 51 1b be 02 4a 94 bd a9 17 20 be
       -0.08752991 -0.151678 -0.07240678 -0.15634026

fcs.2.bias f4 [16]
000000 6e 31 2b 3d 8e 64 d8 3d 7d a1 5a 3d 27 d6 05 be
       0.041795187 0.10566054 0.053376663 -0.13069974
000010 d6 3b 15 3e b3 15 b3 3d bf ce 06 3e d0 92 49 bd
       0.14573607 0.08744373 0.13164805 -0.049212277
000020 a1 02 8d 3d 56 de e8 3d a1 ea 7d bd 43 96 e2 bc
       0.06885267 0.11370532 -0.061991338 -0.027659541
000030 06 8f f8 bd c5 f8 13 3d 27 7b 13 be 7f bd d7 3d
       -0.121366546 0.036125917 -0.14402448 0.105341904

fcs.3.weight f4 [8, 16]
000000 1c b6 4e 3e c3 51 84 be e2 0f 0a 3e 0b a7 12 3e
       0.20186657 -0.2584363 0.13482621 0.14321534
000010 a5 02 31 3e 19 33 79 be 01 b6 6a be eb c9 9a bd
       0.17286165 -0.24335898 -0.22920991 -0.07558044
000020 93 4f 3b be 0d a5 87 bc cd e0 f1 3d d1 f8 5d bd
       -0.18292074 -0.016558195 0.118104555 -0.054192368
000030 66 b0 b0 3d db 8b 5a 3e 82 95 20 be 99 fc d4 3d
       0.08627395 0.21342413 -0.15682033 0.10399742
000040 6b bc d9 3d fc b9 91 3e 03 e8 2d bd a5 97 a9 3d
       0.10631641 0.28462207 -0.04245759 0.08280877
000050 58 b7 19 3e bf d6 59 3e 71 34 2e be b1 00 16 bc
       0.15011346 0.21273325 -0.17012192 -0.009155438
000060 78 57 1d be 1c 65 44 be 76 d8 37 be 70 bd 91 3e
       -0.15365398 -0.19179195 -0.17953667 0.28464842
000070 e2 22 12 3e 9a ab 27 bb 24 9d 42 3d b8 84 97 3b
       0.14271119 -0.002558446 0.047513142 0.0046239756
000080 44 9a a0 bd 44 16 83 3e a6 60 e3 bd 8d 15 67 be
       -0.07841924 0.25602925 -0.111024186 -0.22566815
000090 83 b8 54 3e 01 c2 95 3d 22 f3 8f 3c 0f 8e b9 bd
       0.2077351 0.07312394 0.01757199 -0.09060299
0000a0 9b 27 1d 3d d2 22 17 bd 04 3f 4d 3e b4 7e 6e 3e
       0.03836785 -0.03689844 0.2004357 0.23290521
0000b0 6b 41 12 3e e6 fc 4a 3e 85 77 35 be 9e 71 08 3e
       0.14282767 0.19823036 -0.17721374 0.13324592
0000c0 d9 de 32 3e d9 15 ae ba 88 1f 82 3e f5 28 3c be
       0.17467822 -0.0013281658 0.2541468 -0.18374999
0000d0 be e1 7d 3e b6 35 90 be dd ac 5e be ee 27 6b be
       0.24793145 -0.28165978 -0.2174563 -0.2296445
0000e0 d7 3f 65 3d 5f c1 2b 3e 3b 87 61 bd 78 b2 03 bc
       0.055969086 0.16772984 -0.055060606 -0.008038156
0000f0 63 47 0c be 2f 80 2c bd ce 6d 33 3e 44 c4 93 bd
       -0.13699107 -0.042114433 0.17522356 -0.07215169
000100 8a 84 93 bd 31 89 34 be 7f 6d 4b bd 33 8f bd 3c
       -0.07203014 -0.1763046 -0.04966497 0.023139572
000110 76 57 03 3e 94 ee 83 be 8a de cd bc 79 8f c1 3d
       0.12826332 -0.25767958 -0.025130529 0.09451193
000120 bd 80 27 be 50 83 a1 3d df 1e a5 3d 56 63 56 be
       -0.16357704 0.07886374 0.08062529 -0.20936331
000130 9c 1e 60 bd 6d 19 01 be 3f 35 65 bc 01 86 0a 3e
       -0.05471669 -0.12607355 -0.013989746 0.13527681
000140 53 74 2e bd cb 62 f1 3d db 78 31 bd 30 63 41 3e
       -0.042591404 0.117864214 -0.043328147 0.18885493
000150 14 99 2f b8 a3 f8 3c be e3 01 bf bd 8b 0f 46 be
       -4.1865816e-05 -0.18454222 -0.09326532 -0.19341867
000160 06 e9 6b be 94 90 6d 3e e8 15 5d be d5 69 8e be
       -0.2303811 0.23199683 -0.21590388 -0.27815118
000170 bd 76 a6 bc 4c c5 9e 3d bd 78 44 3e b9 44 85 3e
       -0.02032029 0.07752475 0.19186683 0.26028994
000180 ad be 08 3d be 76 de 3d b7 f3 09 be 42 24 08 be
       0.033384968 0.10862492 -0.13471876 -0.13295081
000190 5e 2d 3f 3e f6 1b fc 3c 31 e7 15 bd b8 2e 8e be
       0.1866965 0.030775052 -0.036597434 -0.2777002
0001a0 f9 85 30 be 8d 3c 06 be d3 33 34 3e 86 fe 62 be
       -0.17238607 -0.13109036 0.17597894 -0.22167405
0001b0 5f 32 1c be c8 c7 9a ba d9 0e 14 bd ac c7 b0 bc
       -0.1525359 -0.0011808807 -0.036146972 -0.021579586
0001c0 b8 16 e6 bd f1 4d c9 bb 23 27 ca 3d fd 2d 64 be
       -0.11234802 -0.0061433245 0.09870746 -0.22283168
0001d0 4b f4 4c 3e ba a0 5b bd 50 3a 96 be 90 60 f4 3b
       0.20015065 -0.053620078 -0.29341364 0.0074578
0001e0 aa 61 3a be 7d a8 47 3e a1 71 28 3e c0 ba 9e bd
       -0.18201318 0.19497867 0.16449596 -0.077504635
0001f0 c9 60 93 bc f3 e8 09 3b 29 ee 0d 3e 00 cb 17 3e
       -0.017990487 0.002104339 0.13860382 0.14823532

fcs.3.bias f4 [8]
000000 e3 64 b7 3d 4b 5f 83 bd 9c 23 a7 bd 92 1e 15 3d
       0.089547895 -0.0641466 -0.08161089 0.036406107
000010 5e 12 df bd 59 e0 ae bc 14 75 9e 3d 40 99 4d 3e
       -0.10892175 -0.021347212 0.07737175 0.20077991

fcs.4.weight f4 [2, 8]
000000 1c 5b d0 be 6d d0 27 3e 78 a9 bc 3e eb 38 3e 3e
       -0.4069451 0.16388102 0.36848044 0.185764
000010 6a fd a1 bd 90 cd fa 3d 45 96 b6 bd 28 46 2b be
       -0.07909663 0.12246239 -0.089153804 -0.16725981
000020 a1 2f aa 3e ab 29 14 3d 8a 8e f7 bd 64 e6 9f 3e
       0.33239463 0.03617255 -0.12087734 0.31230462
000030 22 6a ae 3e 5c d5 a8 3e d1 3e 0f 3b ce db 31 3e
       0.34065348 0.3297528 0.002185751 0.17369005

fcs.4.bias f4 [2]
000000 e9 c2 42 be e6 de e5 bc
       -0.19019665 -0.028060388

bcs.0.weight f4 [70]
000000 4e 13 80 3f 9a 36 7e 3f d1 c2 80 3f c6 80 7c 3f
       1.0005891 0.99302065 1.0059453 0.9863399
000010 b6 93 7e 3f 00 00 80 3f 9e db 7f 3f 1e 05 79 3f
       0.9944414 1.0 0.99944484 0.97273433
000020 8d c0 7e 3f bb f0 80 3f d3 f1 80 3f 00 00 80 3f
       0.9951256 1.0073465 1.0073799 1.0
000030 0c 3c 81 3f 5e f5 7d 3f 00 0d 7e 3f 00 00 80 3f
       1.009645 0.99202526 0.99238586 1.0
000040 2a 06 80 3f 6f d5 80 3f 4a ea 7f 3f 2c 88 80 3f
       1.0001881 1.0065135 0.9996687 1.0041556
000050 d3 2e 7f 3f bf e4 7d 3f 0c c6 80 3f 8b cd 80 3f
       0.99680823 0.99177164 1.0060439 1.0062727
000060 c4 8f 7f 3f f4 e2 80 3f fc 92 7d 3f 62 85 81 3f
       0.99828744 1.0069261 0.99052405 1.011883
000070 62 e7 83 3f 80 c3 80 3f 82 c1 7d 3f 4d da 7b 3f
       1.0304987 1.0059662 0.99123394 0.98379976
000080 b7 71 84 3f c1 9b 7f 3f 94 81 7f 3f 12 b8 81 3f
       1.0347203 0.99847037 0.99807096 1.0134299
000090 bd 15 80 3f cc 8e 7f 3f e1 30 7e 3f f9 47 7f 3f
       1.0006634 0.99827266 0.99293333 0.99719197
0000a0 ac 49 7c 3f f0 be 81 3f c4 d7 81 3f 82 3c 80 3f
       0.98549914 1.0136395 1.0143971 1.0018466
0000b0 66 24 80 3f 34 4f 7c 3f 2f a1 7a 3f c2 de 7d 3f
       1.0011108 0.98558354 0.97902197 0.99168026
0000c0 00 00 80 3f b3 77 7c 3f bf ce 7f 3f 00 00 80 3f
       1.0 0.98620147 0.99924845 1.0
0000d0 00 00 80 3f 1f 9f 82 3f 00 00 80 3f 53 8f 7a 3f
       1.0 1.020481 1.0 0.97874945
0000e0 dc 57 81 3f 51 35 83 3f 3d 20 79 3f 16 1e 82 3f
       1.0104938 1.0250646 0.97314817 1.0165431
0000f0 00 00 80 3f 98 8e 7e 3f d8 98 80 3f b0 9f 7d 3f
       1.0 0.9943633 1.0046644 0.9907179
000100 00 00 80 3f 00 00 80 3f 00 00 80 3f 00 00 80 3f
       1.0 1.0 1.0 1.0
000110 eb 05 7f 3f 9e d4 81 3f
       0.99618405 1.0143011

bcs.0.bias f4 [70]
000000 04 f9 5b 3b 35 bf 1b bc 67 af e2 bb 86 0c 95 bb
       0.0033565173 -0.0095060365 -0.0069178822 -0.004548612
000010 2f ae 53 bc b4 4e 6a bc 96 2c 8d bc 09 2b 9a 3c
       -0.012919947 -0.014300991 -0.017233174 0.018819349
000020 48 53 28 bc 0e 89 a2 3b c5 81 3b 3c da d5 a8 3c
       -0.010273762 0.004960186 0.011444514 0.020609785
000030 74 b1 bd bb 4c 1b 8d bc 44 de cd 3c 68 3f 3a 3b
       -0.0057889763 -0.01722493 0.025130399 0.002841914
000040 42 e8 91 bb 61 10 3e 3c a1 8e 3f bc 5c a9 18 bc
       -0.004452736 0.011600585 -0.01169172 -0.009317722
000050 37 6a cb 39 f8 f4 05 3c 10 77 66 bc ee 2d 17 bb
       0.00038798313 0.008176081 -0.014066473 -0.0023068148
000060 44 7a b8 3c 8e f6 59 3c 31 9b c3 bb d5 cf 72 3c
       0.022519238 0.013303412 -0.005969428 0.014820059
000070 6c 27 fe bb ba d7 13 bb de 05 d4 3b 6b 1e 80 bc
       -0.0077561643 -0.0022559003 0.006470426 -0.015639504
000080 f5 e5 22 3c 71 d7 b2 3a 54 39 41 3b ae b3 cf bb
       0.009942521 0.0013644529 0.0029483633 -0.006338558
000090 46 e7 08 3c 4e 32 aa 3b f6 67 6e 3c a8 58 9b 3b
       0.008355921 0.005193985 0.014551153 0.0047407933
0000a0 38 b1 13 ba b0 93 5f bb c8 ea 77 bb e8 1b cf bb
       -0.00056340126 -0.0034115128 -0.003782915 -0.0063204654
0000b0 e0 4e 79 bc c5 0b 1a 3b de eb fa 3b 07 61 8a bc
       -0.015216559 0.002350555 0.007657512 -0.01689197
0000c0 8b 2a cb bc c5 f3 94 bb 10 fd b0 3c cd d4 ae 3c
       -0.02480056 -0.004545661 0.021605045 0.021341706
0000d0 a2 62 c0 3c f4 6e ae 3b 3a 75 00 3d 0c b4 a7 39
       0.023484532 0.0053232852 0.031361796 0.00031986868
0000e0 13 40 02 ba 11 9b 71 bb ef 7f a0 bc 20 d6 10 3c
       -0.0004968654 -0.0036866108 -0.019592253 0.008840114
0000f0 9f 08 0c bc c5 f1 90 3b ce 3a 21 3c 1a 70 4f 3c
       -0.008546977 0.0044233524 0.00984068 0.012661004
000100 4e 56 dc bb 56 0d 4e bb fb a3 10 3c f5 0d a7 bc
       -0.0067241555 -0.0031441054 0.0088281585 -0.020392397
000110 b6 cf 62 bc eb ad 31 bc
       -0.013843467 -0.010844688

bcs.0.running_mean f4 [70]
000000 d3 95 1f 3e ce f0 01 3e 79 7b 8a 3b 6d 08 3b 3c
       0.15584497 0.12689516 0.004226145 0.011415583
000010 9b a2 36 30 00 00 00 00 4e d3 8c 3e c4 fe fb 3c
       6.644229e-10 0.0 0.27504963 0.03076113
000020 5a ef f7 3d 7f 1c cf 3e 5a 3a b7 3c 00 00 00 00
       0.121061996 0.40451428 0.022366691 0.0
000030 74 6a 82 34 f4 8d 4b 3b e8 67 b4 39 00 00 00 00
       2.4291842e-07 0.0031059952 0.00034409692 0.0
000040 84 d1 ac 3d f5 eb a9 3d b4 78 c1 31 a1 96 d6 3b
       0.084383994 0.08296958 5.6307616e-09 0.006548718
000050 8e d0 01 34 08 89 09 3f 07 8e d7 36 ca 89 20 3e
       1.2089933e-07 0.5372472 6.4240335e-06 0.15677562
000060 d6 2e 24 3e 22 23 85 3e b6 d0 a8 3d ec 3a 8b 3c
       0.16033491 0.26003367 0.082429335 0.01699587
000070 d1 f6 79 3d 45 6b 8b 3c ee 2e d3 35 d6 4a be 3a
       0.061026398 0.017018924 1.5734383e-06 0.0014518152
000080 b1 14 60 3d 83 15 b5 3b 42 26 2c 3d db 09 d3 3e
       0.054707233 0.005526246 0.042028673 0.41218457
000090 6e ef d9 39 4d a6 18 3b 19 81 39 3e 14 db ea 3c
       0.00041567854 0.0023292482 0.18115653 0.028668918
0000a0 10 6b 53 3d 8c 6b 11 3c 73 f8 9d 3c 16 06 70 3e
       0.051615775 0.008875739 0.019283509 0.23439822
0000b0 19 45 ae 3d 8d 00 25 3b 36 a3 0c 3e 4c 8e a1 3d
       0.08509273 0.002517733 0.13734135 0.07888469
0000c0 00 00 00 00 eb f0 bb 3b 03 bb f1 3d 00 00 00 00
       0.0 0.005735507 0.11803248 0.0
0000d0 00 00 00 00 09 d2 ab 3c 00 00 00 00 2c d3 62 3e
       0.0 0.020974176 0.0 0.22150868
0000e0 32 b0 04 3a 3f 9d a2 3d 00 dd 82 3c 65 d5 12 3e
       0.00050616555 0.079401486 0.015974522 0.14339216
0000f0 00 00 00 00 6c c8 67 3a 18 c3 3e 3a f9 42 1b 3e
       0.0 0.0008841816 0.0007276996 0.15162267
000100 00 00 00 00 00 00 00 00 00 00 00 00 00 00 00 00
       0.0 0.0 0.0 0.0
000110 0e 35 a9 3d f4 b4 cf 3b
       0.082620725 0.00633871

bcs.0.running_var f4 [70]
000000 d3 40 f6 3b 85 63 31 3c 4c 2c a6 39 14 12 86 3a
       0.007515052 0.01082695 0.0003169499 0.0010228776
000010 e9 d3 3f 37 da d3 3f 37 72 80 fd 3b b8 9f 37 3b
       1.1433826e-05 1.1433813e-05 0.007736259 0.0028018784
000020 21 e3 a8 3b a1 6a 5b 3c c3 9e db 3a da d3 3f 37
       0.005154029 0.0133921215 0.0016755689 1.1433813e-05
000030 76 ef 3f 37 b6 0a a2 39 69 2c cb 37 da d3 3f 37
       1.1440241e-05 0.00030907028 2.4220166e-05 1.1433813e-05
000040 0c ba d8 3b ab f7 ce 3b 72 d4 3f 37 72 b4 b2 39
       0.0066139754 0.0063161454 1.1433951e-05 0.00034085248
000050 45 e4 3f 37 79 ac 8a 3c 6b 81 46 37 b8 60 ad 3b
       1.1437635e-05 0.016927944 1.1831852e-05 0.005291071
000060 f7 97 9d 3b 64 59 84 3c f6 32 bd 3b c3 0e c3 3a
       0.0048093754 0.016155906 0.0057738973 0.0014881719
000070 f2 a0 38 3b 4f bf 98 3a 29 96 40 37 5e 2a 8e 38
       0.0028172103 0.0011653694 1.1479054e-05 6.778979e-05
000080 72 8c 43 3b b6 35 5e 3a 60 4e 16 3b 8e 22 eb 3b
       0.002983835 0.00084766315 0.0022934899 0.00717575
000090 37 21 d0 37 0e fb 78 39 e0 1c ca 3b 47 4e 07 3b
       2.4811e-05 0.00023744648 0.006167993 0.0020646022
0000a0 a8 54 88 3b 8e e8 63 3a 0d 03 0c 3b 9a c0 1b 3c
       0.0041604824 0.0008694016 0.0021364123 0.009506369
0000b0 0c 57 da 3b bb 7f 08 39 d7 af 0b 3c a1 21 f4 3b
       0.006663209 0.00013017554 0.00852581 0.007450298
0000c0 da d3 3f 37 4c dc aa 39 6a b9 c2 3b da d3 3f 37
       1.1433813e-05 0.0003258906 0.0059425132 1.1433813e-05
0000d0 da d3 3f 37 2b ee 77 3a da d3 3f 37 cd 98 2a 3c
       1.1433813e-05 0.0009457792 1.1433813e-05 0.010412407
0000e0 5e b9 2a 38 cf 43 3d 3c 3e 3e 83 3a f4 2b db 3b
       4.0703795e-05 0.011551811 0.0010013056 0.006688589
0000f0 da d3 3f 37 f6 82 42 38 4b 3b 4f 38 d0 45 e5 3b
       1.1433813e-05 4.637517e-05 4.9407867e-05 0.0069968477
000100 da d3 3f 37 da d3 3f 37 da d3 3f 37 da d3 3f 37
       1.1433813e-05 1.1433813e-05 1.1433813e-05 1.1433813e-05
000110 ca 4b 0d 3c ee d4 14 3a
       0.008624027 0.0005677481

bcs.1.weight f4 [35]
000000 32 90 80 3f cb 6c 7f 3f 7a 79 80 3f fa dd 77 3f
       1.0044005 0.9977538 1.0037072 0.96823084
000010 6f 37 82 3f cc 6d 7a 3f ac ba 79 3f b3 08 7b 3f
       1.0173167 0.97823787 0.97550464 0.9806015
000020 16 ee 80 3f ed 6c 81 3f 5a b2 83 3f 23 52 82 3f
       1.0072658 1.0111367 1.0288804 1.0181316
000030 05 f6 7f 3f 73 71 7a 3f 84 d8 80 3f a3 8d 78 3f
       0.9998477 0.9782936 1.0066075 0.9709112
000040 4d 05 80 3f 02 54 80 3f 67 79 7c 3f a9 08 82 3f
       1.0001618 1.0025637 0.98622745 1.0158893
000050 56 a4 83 3f 80 ce 81 3f 8d 1b 80 3f 53 90 7d 3f
       1.0284526 1.0141144 1.0008408 0.99048346
000060 3d 6b 7e 3f fd 3a 85 3f 1a 4a 7a 3f ce 4f 7c 3f
       0.9938238 1.0408627 0.9776932 0.9855927
000070 57 23 80 3f f9 c0 80 3f e7 36 81 3f 63 47 78 3f
       1.0010785 1.005889 1.009488 0.9698393
000080 4f e9 80 3f 43 16 81 3f e1 38 81 3f
       1.00712 1.0084919 1.0095483

bcs.1.bias f4 [35]
000000 ea fc ad ba 09 4f 1d bb 70 c6 a1 bc 30 3c 83 b8
       -0.0013274227 -0.0024003407 -0.019747943 -6.2577776e-05
000010 59 e6 70 bc cc 3b cd ba 48 6e 27 bc c9 ca 72 3c
       -0.014703357 -0.001565808 -0.010219164 0.014818856
000020 a9 30 89 3c 90 56 16 3c 50 ee e4 3c fd 54 70 3c
       0.016746836 0.009175912 0.027945668 0.0146687
000030 b2 83 83 bc 93 06 83 3c 47 34 c6 bb db 87 09 3d
       -0.016054008 0.015994346 -0.0060487124 0.033576827
000040 63 46 f9 3b e2 94 a9 3c 05 c7 8d 3c 18 cc b3 bc
       0.0076072677 0.020700876 0.017306814 -0.021947905
000050 22 b6 8e bc db 8e f0 3a 00 8b d7 3c a9 c9 7f 3c
       -0.017420832 0.0018353121 0.026311398 0.015612044
000060 b0 30 69 bc b9 2f 3a bd 84 8b 57 bc 55 09 3a 3c
       -0.014232799 -0.045455668 -0.013155822 0.011354764
000070 9a 83 c1 3c 94 ee 99 bc b4 b3 0f 3c 1b 27 bd 3c
       0.023622323 -0.01879052 0.008770872 0.023089936
000080 6c 12 fb 3b fd ea c2 bb 04 94 c8 bc
       0.007662108 -0.005948423 -0.024484642

bcs.1.running_mean f4 [35]
000000 c4 37 80 3e 4e 25 54 3e f1 76 61 3e b5 27 87 3e
       0.25042546 0.20717356 0.22018029 0.26397482
000010 16 ad 82 3e 9f 60 55 3e b3 b9 29 3e fc 14 5c 3e
       0.2552268 0.2083764 0.16574745 0.2149238
000020 11 e2 4e 3e 18 49 92 3e e0 11 62 3e 36 62 7c 3e
       0.20203425 0.2857139 0.22077131 0.2464684
000030 38 9d d8 3d 1f 91 59 3e 7d 78 5c 3e 04 5a 4b 3e
       0.10576862 0.21246766 0.21530338 0.19858557
000040 d8 ba 18 3e d1 fc 4b 3e b6 67 68 3e 86 6f 36 3e
       0.14915025 0.1992066 0.22695813 0.1781598
000050 d6 21 57 3e 5b 29 32 3e 72 da 76 3e 8e cd 21 3e
       0.21009001 0.17398588 0.24106768 0.15801069
000060 02 3d 39 3e 41 be 88 3e 98 4f 1e 3e d2 91 7b 3e
       0.18089679 0.26707652 0.1546005 0.24567345
000070 ed 7f 83 3e 5d 4f 17 3e 98 68 0f 3e 48 0a 9c 3e
       0.25683537 0.14776368 0.14004743 0.30476594
000080 29 be 3c 3e 2e 0a 15 3e a2 04 63 3e
       0.18431915 0.14554664 0.22169736

bcs.1.running_var f4 [35]
000000 54 a6 15 3e cd 3b a8 3d 8a 8f bc 3d 09 a9 13 3e
       0.1461423 0.08214531 0.092070654 0.1441995
000010 d0 ac d2 3d aa af df 3d 73 32 61 3d 45 8a 0f 3e
       0.102868676 0.10922177 0.054979753 0.1401759
000020 e5 b9 d5 3d 37 68 5f 3e bc 0c b3 3d ac 84 ce 3d
       0.10435847 0.21817099 0.08742663 0.10083899
000030 22 ac 74 3d 60 4b e6 3d d7 f2 89 3d a7 bb 9c 3d
       0.05973447 0.112448454 0.06735771 0.07652979
000040 75 83 71 3d ed 23 f3 3d b0 a0 c6 3d d1 09 a7 3d
       0.058963258 0.11872087 0.096986175 0.08156169
000050 0b 6e cc 3d 09 08 74 3d 3d 2d cd 3d 47 8e 8a 3d
       0.099819265 0.059577975 0.10018394 0.067654185
000060 db 9a e7 3d c6 aa 42 3e d8 ca 95 3d 7e 1e 2c 3e
       0.11308833 0.19010457 0.0731408 0.16808507
000070 20 5a be 3d a9 20 8b 3d 3b 49 40 3d cc 30 0b 3e
       0.09294534 0.06793339 0.046944838 0.13592833
000080 44 0d a7 3d 45 73 7f 3d f8 fa 86 3d
       0.08156827 0.06236579 0.06590837

bcs.2.weight f4 [16]
000000 8c 2d 77 3f bc 0b 83 3f 5f 60 80 3f b7 94 7a 3f
       0.96553874 1.0237956 1.002941 0.9788317
000010 86 02 79 3f 15 0d 87 3f ce da 85 3f c0 c0 81 3f
       0.97269475 1.0550867 1.0457399 1.0136948
000020 9b 81 82 3f be c5 7f 3f 46 1f 7a 3f 32 56 87 3f
       1.0195802 0.99911106 0.9770397 1.057318
000030 4d e8 76 3f f9 3b 75 3f 56 99 7b 3f de 52 7b 3f
       0.9644821 0.95794636 0.9828085 0.9817332

bcs.2.bias f4 [16]
000000 1d 13 64 3c 4e 7c 27 bd 35 33 26 3d 6e 92 d8 3b
       0.013920573 -0.04089003 0.04057618 0.0066092527
000010 45 c5 82 3d ed 38 65 bd d6 b8 85 bd f9 9a a3 bc
       0.063852824 -0.05596249 -0.06529395 -0.019971358
000020 82 87 81 bd 17 f9 94 3d 74 5f 68 3d 92 7c 36 bd
       -0.06324674 0.072740726 0.056731656 -0.044552393
000030 88 80 e5 3c f8 6f 07 3d 2a d1 a3 bc 83 d2 8a 3d
       0.02801539 0.033065766 -0.019997198 0.06778433

bcs.2.running_mean f4 [16]
000000 66 b8 59 3e df 9e 95 3e ac e4 a1 3e 2c e4 23 3e
       0.21261749 0.29222772 0.31619775 0.1600501
000010 a0 b9 a2 3e a5 18 84 3e aa b3 81 3e 04 88 3b 3e
       0.31782246 0.25800052 0.25332385 0.18313605
000020 4e 48 72 3e 21 7e 99 3e d3 46 90 3e c7 a4 a4 3e
       0.23660395 0.2997904 0.28179035 0.32156965
000030 51 f9 53 3e ca 7e 79 3e 86 ae 53 3e 1d 34 c8 3e
       0.20700575 0.24364772 0.20672044 0.3910226

bcs.2.running_var f4 [16]
000000 e5 f4 d2 3d e7 32 35 3e e0 0b 28 3e 6d 17 94 3d
       0.10300616 0.17695199 0.1641078 0.072310306
000010 8a c2 4e 3e 94 cf 0f 3e 08 3d f6 3d 3e 6e b5 3d
       0.20191398 0.14044029 0.120233595 0.08858918
000020 8f 82 dd 3d 27 b5 36 3e f6 1b 61 3e 5c 33 8e 3e
       0.10815918 0.17842542 0.21983323 0.2777356
000030 df 0b 13 3e 3f 54 0b 3e ac 31 05 3e a0 bb 73 3e
       0.14359997 0.13606356 0.1300723 0.23802042

bcs.3.weight f4 [8]
000000 8f fa 8a 3f a2 21 87 3f 95 e4 87 3f d3 d6 8a 3f
       1.0857714 1.0557139 1.0616633 1.0846809
000010 e7 74 8c 3f d0 a3 8f 3f 1f d2 7c 3f de 9e 8c 3f
       1.0973176 1.1221867 0.9875812 1.0985982

bcs.3.bias f4 [8]
000000 23 9e f6 bc 4c b0 08 3d c2 54 f6 3c 7e 57 88 bc
       -0.030104702 0.033371255 0.030069713 -0.016643282
000010 92 17 00 bd 12 bf 10 bd 69 eb df bc 1a 82 02 bd
       -0.03127248 -0.03533847 -0.027333932 -0.031862356

bcs.3.running_mean f4 [8]
000000 b8 ef ee 3e 1d e7 80 3e 09 23 a2 3e 8b 1a d0 3e
       0.46667266 0.25176325 0.31667355 0.4064525
000010 77 d0 87 3e 3d f6 d9 3e de a0 87 3e 69 e8 e7 3e
       0.26526234 0.42570677 0.2648992 0.45294502

bcs.3.running_var f4 [8]
000000 66 7a 67 3e ce 24 5b 3e 00 91 95 3e 42 8f 73 3e
       0.22605285 0.21400759 0.2921219 0.23785117
000010 29 64 cc 3d 2d 41 9a 3e ca 95 01 3e 5a c6 69 3e
       0.099800415 0.3012785 0.12654796 0.22829571
